特征提取与识别代码/vec_test_lte4-8_bestmodel.npy (npy, 7976 bytes, 1 tensors)

array f4 [327, 6]
0	0xc09c47dd	-4.8837724
1	0x412848bf	10.51776
2	0xc01bfe0f	-2.4373815
3	0xbfd339d8	-1.6502028
4	0xc160cb33	-14.049609
5	0x410edf0a	8.929453
6	0xc00a0ce0	-2.1570358
7	0x416ecbe9	14.924783
8	0xc053a783	-3.307099
9	0xc0b7c31a	-5.742566
10	0xc0779edf	-3.8690717
11	0x3f15c21c	0.5849931
12	0x3efd5fb8	0.4948709
13	0x40ded31d	6.9632707
14	0xc02d5610	-2.7083778
15	0xc0c7f08f	-6.248115
16	0xbf26663e	-0.6499976
17	0x401fa5c4	2.4944925
18	0xc0a54f93	-5.1659636
19	0x4136e367	11.430518
20	0xc0339740	-2.8061066
21	0xc0c5391e	-6.1632223
22	0x40046066	2.0683837
23	0x3f670b4b	0.90251607
24	0xc048fceb	-3.140437
25	0x412bb8d2	10.732622
26	0xc0245a20	-2.5680008
27	0xc0c6c69f	-6.2117457
28	0x3ca0e334	0.019639589
29	0x3fbab466	1.4586303
30	0xbfa21a65	-1.2664305
31	0x41497ef4	12.593494
32	0xc0523a4b	-3.284808
33	0xc0c4f9d5	-6.155497
34	0xc04f96c8	-3.243578
35	0x3fceb1de	1.6148031
36	0xbf300297	-0.6875395
37	0x41304d1a	11.018824
38	0xc05da15e	-3.462974
39	0xc0c7ea69	-6.2473645
40	0x3f83792b	1.0271353
41	0xbf1ecc3a	-0.62030375
42	0xbef20c92	-0.47275215
43	0x414efd11	12.936784
44	0xc05c99c2	-3.4468846
45	0xc0f09e34	-7.519312
46	0x406651cc	3.5987425
47	0xc0374b09	-2.8639548
48	0x3fd32f9a	1.6498902
49	0x413bd0a1	11.738435
50	0xc02645f4	-2.5980196
51	0xc0dcda87	-6.9016757
52	0xbf13df8e	-0.5776299
53	0xbfb0fa8a	-1.3826458
54	0xc0787e9f	-3.8827283
55	0x41715b15	15.084737
56	0xc079ca50	-3.9029732
57	0xc0da030d	-6.8128724
58	0x3e56b1a2	0.20966199
59	0x3c132bc9	0.008982607
60	0xbf7c6c2b	-0.9860255
61	0x413ce383	11.805545
62	0xc038eced	-2.8894608
63	0xc0e97311	-7.295296
64	0x3f2d0ad4	0.6759465
65	0xbc3bdfa6	-0.011466896
66	0xc0a6c71c	-5.2118053
67	0x414d8f7f	12.847533
68	0xc07f0bbc	-3.9850912
69	0xc0e89b09	-7.268925
70	0x40792dba	3.893416
71	0x3e9255a0	0.28580952
72	0x3e928de2	0.28623873
73	0x41635006	14.207037
74	0xc02e6b3c	-2.725295
75	0xc0b552ef	-5.6663737
76	0xc00bdf8d	-2.1855195
77	0xc0106e14	-2.2567186
78	0xc0a2db21	-5.089249
79	0x41773ae5	15.451879
80	0xc0838314	-4.1097507
81	0xc0b94201	-5.789307
82	0xbf1c352d	-0.6101864
83	0x3e8af827	0.2714245
84	0xc07541c3	-3.8321388
85	0x415b7eaf	13.718429
86	0xbfa9021e	-1.3203771
87	0x3f240170	0.64064693
88	0xc19fd51c	-19.979057
89	0x40e71420	7.2212067
90	0xbf9a09d4	-1.2034249
91	0x4138a7fb	11.541011
92	0xc0711596	-3.7669425
93	0xc1027716	-8.154074
94	0x4071838c	3.773654
95	0xbf26bc55	-0.6513112
96	0xbd7dd082	-0.061966427
97	0x41588475	13.532338
98	0xbff56236	-1.9170597
99	0xbf4565be	-0.7710837
100	0xc1a1a22e	-20.20419
101	0x40da87c2	6.829072
102	0xc09fb944	-4.9913654
103	0x415fe013	13.992206
104	0xbf8fefd5	-1.1245066
105	0x3c83a434	0.01606951
106	0xc18cf99f	-17.621885
107	0x40d68e0e	6.7048407
108	0xc0b48f18	-5.6424675
109	0x418c19ec	17.512657
110	0xc0ac4c39	-5.3843045
111	0xc12aa8f0	-10.6662445
112	0x415b40d3	13.703326
113	0xc0c7e830	-6.247093
114	0xc07d7a2f	-3.9605825
115	0x413a1258	11.629478
116	0xbf9b1135	-1.2114626
117	0xbfe55e9c	-1.7919497
118	0xc155f1db	-13.371547
119	0x40c7809d	6.23445
120	0xbf23117b	-0.6369855
121	0x41834f28	16.41365
122	0xbfddb4ab	-1.732076
123	0xbf8f8036	-1.1211002
124	0xc199eb22	-19.23981
125	0x408e93c2	4.455537
126	0xc091e4ed	-4.559195
127	0x413bd1d7	11.73873
128	0xc0529418	-3.290289
129	0xc0db578d	-6.8544374
130	0x4057c5f3	3.3714569
131	0x3e3723e8	0.17884791
132	0xbeb7f2d2	-0.35927445
133	0x40f88b11	7.766976
134	0xc000fe8c	-2.0155363
135	0xc0b3f95b	-5.624189
136	0x3db213ed	0.08695207
137	0x3f74547f	0.9544143
138	0xc0bc7cf5	-5.8902535
139	0x4109bd17	8.6086645
140	0xbfa13223	-1.2593426
141	0xc040b158	-3.0108242
142	0xc0132cd1	-2.2996104
143	0x4030899b	2.7583988
144	0x3eb05c6e	0.34445518
145	0x4145754a	12.341135
146	0xc0027d7a	-2.0389085
147	0xbfd49ce0	-1.6610374
148	0xc15146d1	-13.079789
149	0x40422dde	3.0340495
150	0xc053f85c	-3.3120337
151	0x4132bf81	11.171754
152	0xbfcd5731	-1.6042234
153	0xc073ef51	-3.8114817
154	0xc06bc373	-3.6838043
155	0x3f93c2cd	1.1543823
156	0xc0ecbe85	-7.398257
157	0x412238cb	10.138865
158	0xc082795e	-4.0773153
159	0xc09efbff	-4.9682612
160	0x4006e3e0	2.1076584
161	0x403e9dc7	2.97838
162	0x3fb73aab	1.4314779
163	0x4118145a	9.504969
164	0x3ec0238d	0.37527123
165	0xc0a9ded1	-5.3084493
166	0xc094358c	-4.6315365
167	0x3e3edfce	0.18640062
168	0xc0010594	-2.0159655
169	0x4128ae53	10.54256
170	0xc0570776	-3.3598304
171	0xc0a9d811	-5.3076253
172	0xc0b3c040	-5.617218
173	0x40987235	4.7639413
174	0xc052ea49	-3.2955496
175	0x414e1bff	12.881835
176	0xbf6e6a6c	-0.93131137
177	0x3fbba20d	1.4658829
178	0xc1b6221e	-22.766659
179	0x410bd18c	8.738659
180	0x40cbd14b	6.3692985
181	0x410a6ce3	8.651584
182	0xbf6e329d	-0.9304598
183	0xc0d4add9	-6.6462216
184	0xc06554d7	-3.5833032
185	0xbfa3a63c	-1.2785106
186	0xc0e52ddf	-7.1618495
187	0x41712a2b	15.072795
188	0xc0587012	-3.3818402
189	0xc09328e9	-4.598744
190	0x403b52d6	2.926931
191	0xc011ec76	-2.2800574
192	0xc0117c50	-2.2732124
193	0x4169a705	14.603276
194	0xbfd186e4	-1.636929
195	0x3f6ba416	0.9204725
196	0xc157a93b	-13.478816
197	0x3f0d4df8	0.55197096
198	0xc02f4d85	-2.7391064
199	0x4195c0f2	18.719212
200	0xc09dcf86	-4.9315825
201	0xc10dfcaa	-8.874186
202	0x412fa57b	10.9779005
203	0xc112be3e	-9.171446
204	0xc016b9d5	-2.3550923
205	0x41837beb	16.435507
206	0xc08e9fb5	-4.4569955
207	0xc13274f1	-11.15355
208	0x4142b787	12.1698065
209	0xc0d732ee	-6.724967
210	0xc07a8aa6	-3.9147124
211	0x411263c3	9.149356
212	0xbff6c8b2	-1.9279997
213	0xc0e6a05b	-7.2070746
214	0x4008d2d6	2.1378684
215	0x400c52ac	2.192546
216	0x3fa0ce27	1.2562913
217	0x416c6ee3	14.777072
218	0xc011efd5	-2.2802632
219	0xc0d7d899	-6.74519
220	0x402ac96e	2.6685443
221	0xc0cb1424	-6.3462086
222	0xbf0caa96	-0.54947793
223	0x411df3d5	9.872029
224	0xbee5e8f3	-0.4490429
225	0xc086cc11	-4.2124104
226	0xc030d120	-2.762764
227	0xbf4bea5c	-0.7965448
228	0xc0f7a9e5	-7.739489
229	0x412e1c16	10.881857
230	0xc0279c14	-2.6189013
231	0xc07394f1	-3.8059657
232	0xbffda941	-1.9817277
233	0x4067e645	3.6234295
234	0x405c00f3	3.437558
235	0x41449425	12.286168
236	0xbfcccd73	-1.6000198
237	0xbff7b257	-1.93513
238	0xc10ba1bf	-8.726989
239	0xc01cba82	-2.4488835
240	0xc047afc0	-3.120102
241	0x41260c55	10.378011
242	0xc0418d15	-3.024236
243	0xc09aae71	-4.833794
244	0xc00727d7	-2.1118066
245	0x400e093c	2.2193136
246	0x3f27e6f7	0.655868
247	0x405625fc	3.3460684
248	0x41562f6a	13.386576
249	0x3dcb937d	0.099402405
250	0xc12ec08b	-10.922008
251	0xc0584309	-3.3790915
252	0xbd94c629	-0.072643586
253	0x3faf745d	1.3707386
254	0x41a053cf	20.040922
255	0x40ce150b	6.4400687
