特征提取与识别代码/vec_test_lte3_bestmodel.npy (npy, 7544 bytes, 1 tensors)

array f4 [309, 6]
00000000: 6932 0642 48da 55c0 4216 03c0 c95c 4bc1
00000010: df52 f2c0 1a46 8dbf ef58 0f42 47b8 a83f
00000020: 4c84 65c0 fc02 69c1 69ac c6c0 c1d0 91c0
00000030: 77ce 0342 4395 b3c0 b104 c540 9462 c93e
00000040: 5378 38c2 6ff3 4141 75fd 1242 485b a0be
00000050: a8d9 f5bf baf6 66c1 2c64 f3c0 d016 85c0
00000060: a9f5 5341 0c30 0e41 e674 6cbe 316a 9cc0
00000070: 24c9 6ac1 b2d1 543d 3b24 d541 6ce9 cdc0
00000080: 5bf1 da40 d587 7e40 3c59 32c2 392e 4241
00000090: b8a8 f441 04b6 eb40 0c00 b8c0 6e1b 8ac1
000000a0: e4cd 7640 5b39 14c1 71ef d341 0656 cb40
000000b0: ae79 20bf 7490 30c1 8168 11c1 52c2 a4c0
000000c0: b019 3241 d183 a740 4a80 ad3e 3976 a4c0
000000d0: f443 fac0 6700 8abf 0c0d 4c41 acf6 19bf
000000e0: 2249 0940 945b 2dc0 b740 83c1 540d a940
000000f0: f526 9e41 5b0b 5140 f755 01bf c827 c4c0
00000100: df3b 6dc1 8b3e aa3f 22b7 4241 5167 5f40
00000110: ab3f 983d c37e adc0 7b36 1cc1 f017 b03f
00000120: ae90 8b41 4798 7740 0f99 d43e 6b2b bcc0
00000130: 8509 3dc1 50a3 1dbf 0bed 9a41 bf96 4340
00000140: 0b9d 58c0 cc4b 2ac1 1cfc 0b40 6433 a0c0
00000150: 7d00 b141 ff04 8240 31c4 0fbf 4a84 0ac1
00000160: baee 3ac1 2236 8ebf 06c5 b841 3c79 12c1
00000170: f09a ef40 a8b9 c840 1abe 3ec2 66b6 8241
00000180: c030 0042 22f3 7a40 0bdd 1b3f 89ae 3fc1
00000190: 060c 31c1 3a36 b2c0 d94f ba41 f44d a140
000001a0: 9d93 94be 905e 29c1 285e e8c0 a821 7cc0
000001b0: f485 e341 3497 8e40 5ec6 adc0 beac 91c1
000001c0: 3e6a 0c41 23f2 09c1 d1fb fd41 f44b f03e
000001d0: 6b4c 8fbf 64ec 84c1 d1bf 4b3f c028 c3c0
000001e0: 5573 1e42 f91b 6dc0 9650 a940 2d96 0bc0
000001f0: f9b1 2ec2 0003 e740 2bc5 bf41 dd5a c140
00000200: 52b7 0e3e ce77 06c1 25e2 4ac1 360e 65c0
00000210: 0bff 8641 43ac 0b3f c21a 2640 d130 43c0
00000220: fd3d 6fc1 5549 083f 3b37 4d41 b93a 6f40
00000230: fd6c c73d 812d cec0 6165 e7c0 1883 5abc
00000240: 2058 c841 530a 7d40 fe83 323e 8e82 2fc1
00000250: 3472 ccc0 40da 9dc0 b02c 7341 8b64 a240
00000260: c3c3 bd3f 4f5a b4c0 6fb3 23c1 7257 06c0
00000270: 594d 8c41 8b9d 9740 c905 833f 59c1 b3c0
00000280: 98f9 50c1 31df 80bf c00f 4f41 8bd8 1e40
00000290: 97bc 173f 53e0 ddc0 dfee 88c0 6d2f a6bf
000002a0: f80a 4541 b390 c640 8389 12bf fafd f6c0
000002b0: 69ee 32c0 0287 5ac0 b4cb 6141 4006 a9bf
000002c0: a24e 6e40 0419 54c0 ec1f 48c1 9162 c03f
000002d0: c4d5 de41 d3b4 c840 7ee2 28bf 2e11 3cc1
000002e0: 75c7 01c1 bf2c c2c0 3025 cc41 f9fb 8440
000002f0: f4c6 fe3f 17ff e2c0 e2ab 87c1 f984 1ac0
00000300: 3cb4 0c42 3588 2dc1 da27 4241 1e71 3c3e
00000310: 30f6 40c2 efb7 4a41 3922 1c41 69f5 9bc0
00000320: 5629 af40 7f1b b8bf 0073 41c1 167a 8240
00000330: 4099 b840 1651 0740 ad02 56bf a9a3 cdc0
00000340: 2052 e83f 98c6 72be 0e89 9141 f8cf 003e
00000350: 5ff5 17c0 2fef 06c1 e417 69c0 8301 a0be
00000360: 649f cd41 b4af 8ac0 8544 3bc0 9243 26c1
00000370: 0f65 b4c0 f608 cd3f 552c e341 9825 153e
00000380: 9f3b 93c0 8275 72c1 b1dd 2c3f adbf 2ac0
00000390: 4eb3 da41 53f3 5e3f b8de 6dc0 6aff 1dc1
000003a0: f827 a9c0 76ae 6ac0 4f0f ad41 10a1 7bbe
000003b0: 255b bcbe b63e e8c0 8fca 12c1 87b7 0dbf
000003c0: 1d5c df41 6f90 5540 8200 3bc0 733c 5ec1
000003d0: 2e97 4ac0 7efd 85c0 1d63 ef41 618e c8bf
000003e0: 2c03 89c0 3ac3 50c1 48cb bfc0 a6b5 e03e
000003f0: 96ac fb41 1088 bbc0 ff6f c7bf d6c4 28c1
33.54923 -3.3414478 -2.0482335 -12.710153 -7.572616 -1.1037018 35.83685 1.3181237
-3.5861998 -14.563229 -6.208546 -4.5567327 32.951626 -5.6119704 6.1568227 0.39333022
-46.117504 12.121932 36.747517 -0.31319642 -1.9207048 -14.435236 -7.605978 -4.1590347
13.247476 8.88673 -0.23091468 -4.887963 -14.674107 0.051957794 26.64269 -6.434744
6.8419623 3.9770405 -44.587143 12.136285 30.582382 7.3659687 -5.7500057 -17.263393
3.8563166 -9.264003 26.491915 6.354251 -0.6268567 -11.035267 -9.088014 -5.1487207
11.131271 5.234841 0.3388694 -5.1394315 -7.820795 -1.0781373 12.753185 -0.60142016
2.1450887 -2.7087145 -16.406599 5.282877 19.769022 3.266318 -0.50521797 -6.129856
-14.827117 1.3300337 12.16971 3.490681 0.07434019 -5.421724 -9.763301 1.3757305
17.445644 3.8686693 0.41523024 -5.8803 -11.814824 -0.6157732 19.365744 3.0560758
-3.3845851 -10.643505 2.1872625 -5.0062733 22.125238 4.06311 -0.5615874 -8.657297
-11.683283 -1.111027 23.096203 -9.154598 7.4876633 6.272663 -47.685646 16.339062
32.047607 3.9210896 0.6088416 -11.980111 -11.065435 -5.5691195 23.288988 5.040766
-0.2901887 -10.585587 -7.2614937 -3.9395542 28.440407 4.4559574 -5.4304647 -18.209347
8.775938 -8.621615 31.747957 0.46932948 -1.1195196 -16.615425 0.79589564 -6.0987244
39.61263 -3.7048323 5.291087 -2.181041 -43.6738 7.219116 23.971273 6.0423417
0.13937119 -8.404249 -12.680211 -3.5789924 16.874533 0.54559726 2.5953832 -3.0498545
-14.952634 0.53236896 12.825984 3.7379591 0.09737585 -6.4430547 -7.2311254 -0.013336919
25.04303 3.9537551 0.17433164 -10.969374 -6.388941 -4.932892 15.19841 5.0747733
1.4825367 -5.636024 -10.231307 -2.0990872 17.537767 4.7379813 1.023614 -5.617352
-13.060936 -1.0068113 12.941345 2.4819667 0.5927214 -6.9336333 -4.279159 -1.2983223
12.315178 6.2051635 -0.57241076 -7.718503 -2.7958014 -3.4144902 14.112232 -1.3205032
3.7235494 -3.3140268 -12.507793 1.503008 27.854378 6.2720733 -0.659706 -11.754194
-8.111196 -6.067962 25.518158 4.1557584 1.9904466 -7.093639 -16.958927 -2.414366
35.17601 -10.845754 12.134729 0.18402526 -48.240417 12.669906 9.758355 -4.8737073
5.473796 -1.4383391 -12.090576 4.077403 5.7687073 2.114324 -0.8359783 -6.426228
1.8150063 -0.2370857 18.191921 0.12579334 -2.3743513 -8.433394 -3.6420832 -0.31251153
25.702827 -4.333948 -2.926057 -10.391497 -5.6373363 1.601836 28.396646 0.14565122
-4.601028 -15.153688 0.67525774 -2.667949 27.337551 0.87090033 -3.7167187 -9.874857
-5.286129 -3.6668983 21.632475 -0.24573159 -0.36788288 -7.257655 -9.174453 -0.55358166
27.919977 3.3369405 -2.921906 -13.889758 -3.1654773 -4.187194 29.923395 -1.566845
-4.281637 -13.047663 -5.9935646 0.43888587 31.45927 -5.860359 -1.5581053 -10.548056
